…
cessfully init logging
/usr/local/lib/python3.12/dist-packages/rapids_dask_dependency/dask_loader.py:36: DeprecationWarning: `TorchScript` support for functional optimizers is deprecated and will be removed in a future PyTorch release. Consider using the `torch.compile` optimizer instead.
  return importlib.import_module(spec.name)
[2025-08-07 07:35:39.278671] distributed env initialization done. Free cuda memory: 23622.44 MB
RankingGR(
  (_embedding_collection): ShardedEmbedding(
    (_model_parallel_embedding_collection): EmbeddingCollection(
      (embeddings): ModuleDict(
        (video_id): Embedding(10000000, 128)
        (user_id): Embedding(10000000, 128)
      )
    )
    (_data_parallel_embedding_collection): EmbeddingCollection(
      (embeddings): ModuleDict(
        (user_active_degree): Embedding(10, 128)
        (follow_user_num_range): Embedding(9, 128)
        (fans_user_num_range): Embedding(10, 128)
        (friend_user_num_range): Embedding(8, 128)
        (register_days_range): Embedding(8, 128)
        (action_weights): Embedding(226, 128)
      )
    )
  )
  (_hstu_block): HSTUBlock(
    (_preprocessor): HSTUBlockPreprocessor(
      (_positional_encoder): HSTUPositionalEncoder()
    )
    (_postprocessor): HSTUBlockPostprocessor()
    (_attention_layers): ModuleList(
      (0-1): 2 x FusedHSTULayer()
    )
  )
  (_mlp): MLP(
    (_mlp): Sequential(
      (0): Linear(in_features=128, out_features=512, bias=True)
      (1): ReLU()
      (2): Linear(in_features=512, out_features=8, bias=True)
      (3): Identity()
    )
  )
  (_loss_module): MultiTaskLossModule(
    (_loss_modules): BCEWithLogitsLoss()
  )
  (_metric_module): MultiClassificationTaskMetric(
    (_eval_metrics_modules): ModuleList(
      (0-7): 8 x BinaryAUROC()
    )
  )
)


table name |          | memory(MB) |             |         | hbm(MB)/cuda:0 |             |          |  dram(MB) |            
…
